code2inv/prog_generator/NN_Example/mnist_model_cpp.pt (torch, 102682 bytes, 8 tensors)

weight f4 [10, 1, 5, 5]
00000000: 38b7 c03d 0205 b7bd 3117 e7bd 7eb9 e8bd
00000010: 8379 7bbe 8195 b33d 4711 de3b e24a f33a
00000020: b35a 363c 3962 163d 5974 833d f2ea 293e
00000030: cd2e 773e 922d 0e3e 67ae af3d 186a 2fbd
00000040: a3f4 fe3d 3ce6 9a3d cc59 553e 8cbd f73d
00000050: f6a7 78be d471 87be b5b1 7fbe 36aa 94be
00000060: cca2 dabd 8a9c 323a 7fb6 953d 2835 52bd
00000070: ee5f 9fbe 962e b93d bdb6 123d c6aa 403e
00000080: a199 4c3d c4d9 63be 7cd0 83be 2954 75bd
00000090: 0cb9 7c3e 11fe 3cbd f176 69bc 9811 9dbe
000000a0: 3cdf 3d3e 8e22 88bc c8de 1d3e 2250 e0bd
000000b0: e7b9 71be d00f 083e 0774 2f3c 0f9d e23d
000000c0: 947d 8a3c 0462 a83d 0c73 80be 3958 b4bd
000000d0: 59ca c63d 5e16 013d 3549 733e 4be3 71bb
000000e0: bf4c 46bd ecfd e9bc 7786 893e 6f96 2b3d
000000f0: ff21 06be 3811 183e 288e 813e f132 953e
00000100: 3f03 2dbe f694 2c3d 0385 0b3d 32a7 713d
00000110: 8de0 fcbd 84e2 82be 1056 8d3d 443e d8bd
00000120: 9303 59bd 313e 20be 2e8d 9fbd 5cd7 5d3d
00000130: 2981 3b3e 5a39 703e 2e1b 4bbc 904b 453e
00000140: 76ab 8cbd 5b5c de3c 94df 263e 709d 1b3e
00000150: 822d 643e f520 1abe 0ceb 10be 828d 2f3e
00000160: 26b6 903d 12a3 333e c139 d9bc e6f1 babe
00000170: f6c5 7bbe dc6d dcbd 5497 4abe 14e8 8cba
00000180: 247e 6dbd ab98 8ebe e81d 80be 606c cdbd
00000190: 4dfd 393e 30ac 60bd 0142 d53d cfa3 6c3d
000001a0: d46a 90bd 0298 53be 5c8c 383e 1b96 d3bc
000001b0: 24e2 2e3c 3065 7b3d 6d3a 4bbd 733b d93d
000001c0: 32c3 143e 5bcb 80be 3cbc c73c d52c 3e3c
000001d0: 7588 f23d 4e16 fd3d 89bb 49be a49a 0fbe
000001e0: 48ee 2abe 08a1 053d 4ce2 343e f32b 1fbe
000001f0: 86fe cc3d 6aec 47be e4c1 b5be da98 21be
00000200: 84c4 653d 4847 163e 0705 94be e48a d53d
00000210: 2156 a73e 19ad 353e f28b 763d dbb9 143e
00000220: ccc8 743e cf8c 433d 64bb 72be fb9c 5fbe
00000230: e9cf cb3b 27f4 d1bb 9548 8fbe 36d5 8bbd
00000240: 1c99 d53d 5193 9d3c 37a1 2d3d 83db 01bc
00000250: 023c b63d 5388 0a3e ec44 e1bd 0c68 823e
00000260: 0dff d43d fee7 b6bc 5f08 33be 34a9 84be
00000270: 0b0c e0be ceda c6be e4ce 67be 5324 9bbe
00000280: 430c 44be d680 cbbd 20a2 2ebe c049 28be
00000290: ee34 52be 406f 443d 9616 92bd f682 aabc
000002a0: aeec eebd f549 15bd 6e21 c5bc 9dd3 033e
000002b0: b7bf 103e 9458 293e 333a ad3e 9d5e df3a
000002c0: fb25 993d 69c2 563d c9c7 48bc 8491 b53e
000002d0: f7b6 14be 0ddf ddbd 06a6 87be 9543 8dbe
000002e0: bd56 5cbe 7a2e 303e 00d3 74bc cd71 42be
000002f0: a2c8 87be ad3d 75be 1347 123e f1c8 4f3e
00000300: 9a4c fd3c d561 22bc ce79 223e 16c5 b8bd
00000310: d9fa 833e d4cc 873e a06d 843e d68e cabd
00000320: ecf5 c03d 5f40 1dbe be6b 393e a41e e9bb
00000330: a004 dc3d 02d3 e6bd 05a8 a7bd 18ab b7bc
00000340: b53e b83d 53b5 f63d a56e 11bd 9cb8 923d
00000350: 39f2 44be e839 753d 9026 2d3e 3010 2e3e
00000360: b264 1d3e 48b7 3cbe ae06 1bbe 1cf2 693e
00000370: f333 33be 1e51 7f3d 40b4 51be a57b 5ebe
00000380: bc3a a63d 4c90 fbbd dd1d b1bd afb0 e03d
00000390: 1bf1 2f3e 16c0 293e f7e1 08be bd6d 79be
000003a0: 8125 253e 03f2 77bb 0c73 c2bd 8306 18be
000003b0: e288 89be a2f6 db3d b448 5e3e 4a85 cdbc
000003c0: 10f5 6fbe 4f6a 3ebe 620e fbbc 6aa4 cb3d
000003d0: 48d0 893d 094f 8a3d c045 79be 1556 59be
000003e0: f168 83bd a385 213e
0.09409946 -0.08936502 -0.1128372 -0.11363505 -0.24558072 0.0876875 0.006776962 0.0018561746
0.011130023 0.036714766 0.06418676 0.16593531 0.24138947 0.13884571 0.085781865 -0.04282579
0.124490045 0.07563445 0.20835036 0.120967 -0.24282822 -0.2645403 -0.24970134 -0.2903611
-0.10675582 0.0006813487 0.07310199 -0.051320225 -0.31127876 0.09042089 0.035818804 0.18815145
0.0499512 -0.2225104 -0.25744998 -0.059894715 0.24679965 -0.046140734 -0.014249549 -0.30677485
0.18542188 -0.01661804 0.15417016 -0.10952784 -0.23606072 0.13287282 0.010708815 0.11065113
0.016905583 0.0822182 -0.25087774 -0.0880589 0.097065635 0.03151547 0.23758395 -0.0036909159
-0.048413035 -0.028563462 0.268604 0.04189151 -0.13098906 0.14850318 0.2530377 0.29140428
-0.1689577 0.042134248 0.034062397 0.05899734 -0.12347517 -0.25563443 0.06901181 -0.10558751
-0.052981924 -0.15648724 -0.077906 0.05416046 0.1831099 0.23459378 -0.012396617 0.19267106
-0.06868641 0.027143648 0.16296226 0.15196776 0.22282985 -0.15051635 -0.14152163 0.17143825
0.07065992 0.17542675 -0.026516797 -0.3651268 -0.24587235 -0.107631415 -0.1978429 -0.0010750317
-0.057981625 -0.2785085 -0.25022817 -0.100304365 0.18163033 -0.05485171 0.1041298 0.057773408
-0.07051626 -0.20663455 0.18022293 -0.025828412 0.010674033 0.061375797 -0.049616266 0.10607042
0.14527586 -0.25155148 0.02438175 0.0116073685 0.11842433 0.1235777 -0.19700445 -0.14023834
-0.1669246 0.032624274 0.1766445 -0.15544109 0.10009484 -0.19523779 -0.3549949 -0.15780964
0.056095615 0.14675629 -0.28910086 0.10426882 0.326829 0.17741813 0.060192056 0.14524023
0.23904723 0.047741707 -0.23704296 -0.21837227 0.006219853 -0.006407279 -0.27985063 -0.06827776
0.10429594 0.019235285 0.042390075 -0.007925871 0.08898164 0.13528566 -0.10999474 0.25470006
0.104002096 -0.02232742 -0.17483662 -0.25910342 -0.43759188 -0.3883881 -0.22637516 -0.3030115
-0.19145302 -0.09936683 -0.17054033 -0.16434383 -0.20528004 0.04795766 -0.07133214 -0.0208144
-0.11666237 -0.036447484 -0.024063792 0.12873693 0.14135633 0.16537696 0.33833465 0.0017041747
0.07477947 0.052431498 -0.012254664 0.35462582 -0.1452292 -0.10833559 -0.26493853 -0.27590623
-0.21517463 0.1720523 -0.014942884 -0.18988724 -0.26520258 -0.23949309 0.14284925 0.20291497
0.030920316 -0.00991102 0.15866777 -0.09021966 0.2577732 0.2652346 0.25864887 -0.09890525
0.09421906 -0.15356587 0.18107507 -0.0071142484 0.1074307 -0.11270715 -0.08186344 -0.022420451
0.089963354 0.120463036 -0.03550591 0.07164118 -0.19233026 0.059869677 0.16909242 0.16998363
0.15370443 -0.18429291 -0.15139267 0.22846264 -0.17500286 0.06233322 -0.20478916 -0.21726854
0.081166714 -0.12283382 -0.08648274 0.109712 0.17181818 0.16577181 -0.13367449 -0.24358268
0.16127588 -0.003783346 -0.094946 -0.14846234 -0.26862246 0.10740401 0.21707422 -0.025087971
-0.23433328 -0.18595241 -0.030646507 0.09943469 0.067291796 0.06753356 -0.24343014 -0.21224244
-0.064165 0.15773635

bias f4 [10]
00000000: 7d1e 11bd e69f 22be 63c9 5bbe b382 89bb
00000010: f057 02be 59d1 29be 14ea 203d 29ad 7fbd
00000020: bff0 76be 6f3a a7be
-0.035429467 -0.15881309 -0.21463542 -0.0041964888 -0.12728858 -0.16583766 0.039285734 -0.062420998
-0.24115275 -0.3266177

weight f4 [20, 10, 5, 5]
00000000: dd6f f03d ded9 683d 4d9d 05be 9f85 073c
00000010: d943 403c c663 d93c 5d75 d0bc 108d bbbd
00000020: 78d3 d63d 735c 953c d625 cdbd d2be c4bd
00000030: 7de3 07bc 5531 7d3d cdd2 59bd dbbc f4bd
00000040: 039e 42bc 7207 fb3c e8ed 85bd 3058 89bd
00000050: 951b b7bd 5cff 0dbc 0cc5 063d cdc2 6cbd
00000060: d554 43be 873b 69bd 85d1 98be 8e4b 863d
00000070: a569 ab3d ec11 e93d 56d2 38be f8f2 07be
00000080: 2af0 973d a674 a83d 43cd ec3d 200e 2abe
00000090: 48d1 1fbc 00d4 433d be80 2a3c 1961 d9bc
000000a0: 4fdb 5ebd 08da afbb bd9d 0db8 771c dabc
000000b0: e800 14be d7d5 6bbd 3474 e0bc 5590 a4bc
000000c0: 5d56 25bc 2b0c 813d ded7 56bc de3a 483c
000000d0: f852 84bd 8f56 4bb9 a6c7 5bbd 198b 9abd
000000e0: bfb6 c439 081e a03d 5265 e83d bc7a 6bbd
000000f0: b0c8 973c 1246 883d e941 9f3d cc25 ddbb
00000100: 9833 1bbe 80ad ac3d b252 6f3d 9283 633d
00000110: a7a6 b5be 25e3 d4bd 9300 453d a218 063c
00000120: 3a4e 813c a05f a1be e456 65bd 3fc0 8c3c
00000130: 7e5b 0fbd 9b39 373b 8166 bc3c fb27 873c
00000140: 981b 18bd e4e6 0c3a 1899 d83c a4bd 6d3d
00000150: 2a6a cabc 455a b53d 33f6 d53d bad5 ac3d
00000160: 72df fabc b5b0 24bd 3b95 8e3d 8a29 c13d
00000170: 8fe9 b83c 2b49 e5bc 5f36 89bc ed2a 563d
00000180: 15bb c23d bea8 5d3d dc32 5dbd d1f1 c2bd
00000190: 18ec 6fbd 5a32 5ebe 0db4 1b3d 287e 553d
000001a0: 62e3 793d 7979 7ebe 4f9c b3bd cece a13c
000001b0: 125a 9e3d e6e4 08ba 457f 13be 4d6e fa3c
000001c0: 167e 483d 69a9 2e3d bd27 e5bd c582 43bd
000001d0: ad31 e8bc d07c f63c b9ef 1cbd 980c 8fbe
000001e0: 1b5a 19be 0ea7 efbd 1772 4fbd 79a7 b6bd
000001f0: 205e 48be af6b 9abd 3078 c9ba ffa4 643d
00000200: 19b6 9abd 55af 82be 966f 56bd 4db3 c03d
00000210: c8cc f6bb c1ef 23be 0ba6 3abe 85a1 913d
00000220: b029 e83d 934d a33c 9373 1bbc acac f1bd
00000230: 6bba d73c 6962 7f3d e97b fcbc bb46 8cbe
00000240: 45a8 2fbe c366 b0bc a9ed 71bd 4f03 00be
00000250: 81c1 a2bd 34c3 02be eda3 f3bc 039e 8d3d
00000260: a161 cb3d 705e 81bc f8c1 4f3d 6023 e8ba
00000270: 36eb 673d 086c d23d 96dd 94bd 38bc 15be
00000280: 5b15 fd3b d26f 663d 1098 83bd 0a79 003b
00000290: 5926 62bd 52f3 263b d027 23bd ee7f 4c3d
000002a0: c649 a2bb 38b6 97bd afe5 ee3d 07bb de3d
000002b0: 6661 413e a128 d03d 858d 163c 9082 aebc
000002c0: e133 9ebb eb60 0abe b053 51bd 9451 7f3c
000002d0: f2b2 a0bd 64a9 9abd f8e4 5bbe 2c3d 56bd
000002e0: 92d2 03bd 19cd 07bd a893 4bbe 8bd1 a4bd
000002f0: 8882 bbbd 3f94 c1bd 92ae ecbd 223b dbbd
00000300: 485e cfbc d5e7 3ebd e213 87bd de31 81bd
00000310: 1a98 99bc 34db 6abd b71c 88bc 9ead a6bd
00000320: e4ec 18bd 441e 8bbd 358c 78bd d3cc 92bd
00000330: 2597 c6bd 2e38 203d 5acc d83c cbf6 74bd
00000340: 6cfb 08bd 5b20 59bd 7abe 19bd ea41 ffbc
00000350: 6562 a63c 852c d6bc 76ca 3a3d cffd f63c
00000360: ebb1 88bd 2302 2ebe da9a 0bbe 1ebb 983c
00000370: ad81 28bd bfbb debd 8fe0 26be 6685 53bd
00000380: 9f1f 3c3d f440 8d3d df62 7abd 1cd0 d4bc
00000390: 7203 c23c 5a34 20bd 04bd 4f3d 13ae 053c
000003a0: 391f eb3d a68b 08bd d0d7 95bd b3bf a63c
000003b0: c44b 2b3e cc39 fb3d 43ca 9bbd 8758 86bd
000003c0: 1e99 03bd fb42 c33d e893 653c 32d1 6cbe
000003d0: ea72 a5bd 94ad 7cbc 4cc3 29bc 0a29 cebd
000003e0: f452 e8bd 5269 a43c 6554 133e 0f1e 313e
000003f0: df7b 72bc 13ed cc3c a731 1c3e 1425 6d3d
0.11740086 0.0568484 -0.13048287 0.008271604 0.011734926 0.026536833 -0.025446588 -0.09157765
0.10489553 0.01823256 -0.10016982 -0.096067086 -0.0082939835 0.061814625 -0.05317955 -0.11950084
-0.011878493 0.030643199 -0.06539518 -0.067062736 -0.08940808 -0.008666839 0.032902762 -0.057802964
-0.1907533 -0.056941535 -0.2984735 0.0655738 0.083697595 0.113803715 -0.18048987 -0.13276279
0.074188545 0.08225374 0.11562588 -0.16606951 -0.009754486 0.0478096 0.010406671 -0.026535558
-0.054408368 -0.0053665675 -3.3763925e-05 -0.026624901 -0.1445347 -0.05757698 -0.02739916 -0.020088354
-0.010091391 0.06301149 -0.01311299 0.012221066 -0.064611375 -0.00019391834 -0.053657196 -0.07546062
0.0003752019 0.07818228 0.1134745 -0.057490095 0.018528312 0.0665399 0.07776243 -0.0067488905
-0.151564 0.0843153 0.058428474 0.055545397 -0.35478708 -0.10394887 0.04809625 0.008184584
0.015784372 -0.3151827 -0.05599107 0.017181514 -0.034999363 0.002795792 0.022998096 0.016498556
-0.03713569 0.00053749816 0.026440188 0.058042184 -0.024708826 0.08855108 0.104473494 0.084392026
-0.030624125 -0.040207583 0.06962057 0.09431751 0.022572307 -0.02798899 -0.016749559 0.05228703
0.09508339 0.054116003 -0.05400358 -0.09518779 -0.058574766 -0.21698895 0.038013507 0.052122265
0.061007865 -0.24851026 -0.08770048 0.019751932 0.07732023 -0.0005222097 -0.14404018 0.030570174
0.04894837 0.04264203 -0.1118922 -0.047732133 -0.028344 0.030088812 -0.038314555 -0.27939296
-0.14975779 -0.11701785 -0.050645914 -0.089186616 -0.19567156 -0.0754007 -0.0015370902 0.055821415
-0.075542636 -0.25524393 -0.05235251 0.09409199 -0.007531736 -0.16009428 -0.18227403 0.071108855
0.11336076 0.019934451 -0.009488004 -0.11800513 0.026334008 0.06234971 -0.030820804 -0.27397713
-0.17154033 -0.021533376 -0.05906454 -0.12501262 -0.07947064 -0.12769777 -0.029741252 0.06914904
0.099307306 -0.015792102 0.050722092 -0.0017710738 0.0566208 0.102745116 -0.07268827 -0.14622581
0.007723493 0.056258984 -0.06425488 0.0019603395 -0.055212352 0.002547462 -0.03983289 0.04992669
-0.004952642 -0.07407802 0.116649024 0.108755164 0.18884811 0.10163999 0.009189014 -0.021302491
-0.004827962 -0.13513534 -0.0511052 0.015583415 -0.07846631 -0.0755184 -0.21474063 -0.05230443
-0.032183237 -0.03315458 -0.19880545 -0.0804778 -0.09155756 -0.09452104 -0.11556734 -0.10704638
-0.025313511 -0.04660781 -0.06595589 -0.063083395 -0.018749285 -0.057337955 -0.016615255 -0.081385836
-0.03733529 -0.06792882 -0.060680587 -0.07167973 -0.09696797 0.039116077 0.02646463 -0.059805673
-0.0334429 -0.053009372 -0.03753517 -0.03115936 0.02031059 -0.026144275 0.045603238 0.030150322
-0.0667456 -0.16993003 -0.1363329 0.018643912 -0.041139293 -0.108756535 -0.162966 -0.05164089
0.045928594 0.068971545 -0.061129447 -0.02597814 0.023683283 -0.039112426 0.05071737 0.008159178
0.114805646 -0.033336304 -0.073165536 0.020355081 0.16728121 0.12266883 -0.07606938 -0.06559854
-0.032128446 0.0953426 0.014012314 -0.23126677 -0.08078559 -0.015422244 -0.010361504 -0.10066421
-0.11343947 0.020069752 0.14387663 0.17296623 -0.014800041 0.02501539 0.15253316 0.05789669

bias f4 [20]
00000000: 494a 77bc 3ef7 a4bd b9d5 ffbc d502 80bd
00000010: e81e e3bb 1f36 41be 8555 32bd fc7c f5bd
00000020: 9efc 0dbe 8335 593c 5e08 bfbd ff2e 8bbd
00000030: 1a97 75bd a15e 10bd 3662 93bc c21d 28be
00000040: ea09 053a d4e4 9abd f397 5bbe 7b9f 34bd
-0.015093395 -0.0805497 -0.03122984 -0.0625054 -0.0069311745 -0.18868302 -0.04353859 -0.119867295
-0.13865897 0.013257387 -0.09327768 -0.06796073 -0.059958555 -0.035246495 -0.017991167 -0.16417602
0.00050750247 -0.07563177 -0.21444683 -0.044097405

weight f4 [50, 320]
00000000: d783 edbd 6513 b7bd 7c90 0dbd 72e1 fabc
00000010: f90d 26bc 9bc1 a6bd fef9 103e 753b 1bbd
00000020: f67d eebd 691f c33d 9d24 2a3e 2ccd 2f3d
00000030: d918 75bd 9870 3d3e cdb7 103e feb6 4f3d
00000040: 8aa9 98bd 6e70 27bd a0b8 ca3c f17b 103d
00000050: 7b07 d1bc 0eb9 bdbc 7b56 383d 4475 ecbd
00000060: d2ea 60bc 55df 45bd 7771 6fbc 173f c03c
00000070: 723e e7bc b4ec b2bd 3ece af3c 44ea fa3d
00000080: e832 d4bd 61d2 feba 0e34 5fbd 26a9 99bd
00000090: 344b 163d f3a5 eb3d 88f5 3f3d 0301 e13c
000000a0: 1fab a8bb 5ad4 a53d 3a8f 2cbd 70b4 4dbd
000000b0: e2a9 2bbd 8a2a af3b 25a5 97bc cf08 2dbb
000000c0: 29a8 87bd d20f e5bc b886 943c 188d 1fbb
000000d0: 0c9c 03be 1b89 94bb 23a5 b23c 0212 173c
000000e0: 87cd e5bd ad80 7dbd 2fb3 ebbc 981d d0bd
000000f0: 3451 08be 1ea7 b3bd f3ca efbd 29df 8bbe
00000100: c49f 31bd 0ab1 b13c 53a4 36bd ad01 78bd
00000110: e810 ac3c 33aa 0f3e 02cd 123d 94a1 053e
00000120: af9a 833d 4bad 8b3d 995c f83d d7c8 493e
00000130: e03d 9c3d 6725 533e 2205 973d eb3e e93c
00000140: 9a5a bfbd 235b cc3d a88b 0c3d 4dcd c7bd
00000150: e7f8 65bd e0fa 913d 1071 1dbd 22d7 44be
00000160: 8f83 7ebd 1154 82bd b149 8fbc 9f5b b9bd
00000170: 730d 8dbd 2198 fc3d 2771 673d ce63 d3bb
00000180: 7e63 f73c e414 4e3b 9f58 f9bd 114b a0bd
00000190: ccc1 2c3d c5af a23d 2670 863c 4976 323e
000001a0: 1af8 0e3d 4841 1a3d cbf6 2d3e bc4c 1e3e
000001b0: aa3e fa3c 5dd2 043e 7615 043e 894c d73d
000001c0: 97d6 99bd 9521 41bc 2a3a 24bd cd94 6fbd
000001d0: ba8b dd3d 1d9f 263c f028 a1bc 3e70 a0bd
000001e0: 9383 1e3d 831c 4bbc 6b0c eebd 8dd8 bebd
000001f0: a7fb 4fbd 4d5d 41bd f1bc 62bd 44f4 633d
00000200: 5dbb a3bd 4093 55ba 5012 503d aff4 2ebd
00000210: 3ce4 9f3b c06c e33d 3b82 c93d 4a0e 823c
00000220: 4972 933c 350a ccbb 6def f2bd 7b61 d73c
00000230: 7680 2abd 96b3 08bc b446 beba c833 a3bd
00000240: 981f 5bbd 4a08 e2bd 9664 4b3d ef3c 69bc
00000250: 43e8 1d3e a8e6 cd3d 0ca5 1e3e 4681 a9bd
00000260: 9a26 2b3e f59a ca3d 2eb7 ce3d 4d1b 013e
00000270: 80b7 2b3e 07d5 7a3e ef33 2a3e 2186 b13d
00000280: d6c5 e73c 244f 57bb 37ca da3c 1f9f 0f3e
00000290: 298a c33c a096 983b f33a e03d 0782 243e
000002a0: 3472 09bd 408a 2a3d b4a5 a1bd ef4f 593d
000002b0: bc90 cb3d 4aac 523e 8608 dd3b ab74 01be
000002c0: 085b 97bd 2b56 0ebe a6ac cfbd bf81 4dbd
000002d0: 136c 353d d5e0 c83c b204 fb3d e358 143c
000002e0: ea9f f23d f6c1 173d c8fb 903d a104 c13d
000002f0: 6c64 3f3d ac2b 0d3e f43d 563e 7cfd 443e
00000300: 90fe cb3b 17b2 8dbc e164 01bd 4b01 a33c
00000310: c401 923d b3ad 473d dbf5 a03d 8d3f 823d
00000320: ca0a a2bc 2c8c 06bc ae8e 983c 0e45 423b
00000330: a554 41bd 1760 833e 6426 353d e82d cabc
00000340: b30e 48bd bcd5 a63d a0dc c23d 038d 6d3d
00000350: 3406 c8bb 8fe3 92bc d38b f33c 41c9 143d
00000360: 057b 10be e73c b63c ece0 373e 2e5a 3a3c
00000370: 99e6 4fbd 1dd7 263d a16d b63d 74c7 80bd
00000380: ab60 d8bd 0a50 bcbd d962 3abe 4ce3 1fbe
00000390: bae8 20bd 130f 35be 8762 1e3c 287f c1bc
000003a0: 7b20 713d 5fb0 ee3d 3d96 213e 0daa bdbc
000003b0: 9726 a63d a6bc d83d 1a18 643b 18bd 8c3c
000003c0: ef2b f83c 0cf3 993d 81aa 3c3d 6105 d6bd
000003d0: cbc1 bcbd 63fd ad3d 3a4b 313d a516 b0bb
000003e0: 5bba 51bd 18fb b43c 18fa 033e 4122 97bd
000003f0: f6ee 1b3d aeb4 f53c c940 1d3e 56c4 893c
-0.11597412 -0.08939246 -0.03456162 -0.030625079 -0.010135167 -0.08142396 0.14157864 -0.0378985
-0.11645119 0.095274754 0.1661553 0.042920277 -0.05983815 0.18499982 0.14132614 0.050711624
-0.07454212 -0.040878706 0.02474624 0.03527445 -0.025516262 -0.02315953 0.04500435 -0.11545804
-0.0137278605 -0.04830869 -0.0146144545 0.023467584 -0.028228018 -0.08736554 0.021460649 0.12251714
-0.10361272 -0.001944136 -0.054493003 -0.07502966 0.036692813 0.11506262 0.046865016 0.027466303
-0.0051473523 0.080971435 -0.04212878 -0.050220907 -0.04191006 0.005345647 -0.018511364 -0.0026402955
-0.06623871 -0.027961645 0.018130645 -0.0024345573 -0.12852496 -0.004532946 0.021807259 0.009220602
-0.11220842 -0.061890293 -0.028771965 -0.101618946 -0.13312227 -0.087721094 -0.11708631 -0.27318695
-0.043365255 0.021690864 -0.044590306 -0.060548473 0.021004155 0.1402977 0.035840042 0.13049918
0.06425988 0.068201624 0.121270366 0.1970552 0.07628989 0.20619737 0.07374026 0.028472384
-0.09343453 0.099783204 0.034312874 -0.09755955 -0.056145575 0.07127929 -0.038437903 -0.19222692
-0.062137183 -0.06363691 -0.017491193 -0.090506785 -0.06887331 0.12333704 0.056504395 -0.0064511066
0.030198809 0.0031445557 -0.12175106 -0.07826818 0.042177007 0.07943682 0.016410898 0.17427935
0.034904577 0.037659913 0.16988675 0.1545896 0.030547459 0.12970872 0.12898812 0.10512645
-0.07511633 -0.011787792 -0.040094532 -0.058491517 0.10817666 0.0101697715 -0.01967284 -0.078339085
0.038699698 -0.012396934 -0.11623462 -0.093186475 -0.050777104 -0.04720812 -0.05535597 0.05565287
-0.07994721 -0.0008147247 0.050798714 -0.042713817 0.0048795026 0.11104727 0.098392926 0.015875954
0.017998831 -0.0062268027 -0.11862073 0.0262916 -0.041626416 -0.008343598 -0.0014516921 -0.07968861
-0.053496927 -0.11036737 0.049656473 -0.014235719 0.15420632 0.1005376 0.15492648 -0.0827661
0.16713944 0.09892837 0.100935325 0.1260807 0.16769218 0.24495326 0.16621374 0.08668161
0.028292578 -0.0032853568 0.026707752 0.14025544 0.02386959 0.004656628 0.10948744 0.16065226
-0.03355618 0.04163575 -0.078929335 0.053054746 0.09939715 0.20573536 0.006745401 -0.12642162
-0.0739041 -0.13900058 -0.10140352 -0.050172564 0.04429252 0.02452127 0.12256755 0.009054395
0.118469074 0.03705021 0.070792735 0.09424711 0.04672663 0.13786191 0.2092207 0.19237322
0.0062254146 -0.017296834 -0.031590346 0.019898077 0.07129243 0.048749637 0.07859393 0.063597776
-0.019780535 -0.0082121305 0.018622722 0.002964321 -0.047199864 0.25659248 0.044226065 -0.024680093
-0.048842143 0.08146235 0.09514737 0.057995807 -0.006104255 -0.017930774 0.02972976 0.036324743
-0.14109428 0.022245837 0.17956895 0.01137404 -0.050757024 0.04073249 0.08907629 -0.06288043
-0.10565313 -0.09194954 -0.1820177 -0.1561405 -0.039284445 -0.17681532 0.009667045 -0.023620203
0.058868866 0.11654734 0.15779968 -0.023152376 0.08112829 0.10582857 0.0034804405 0.01718001
0.030294387 0.07517061 0.046061043 -0.10450245 -0.092166506 0.08495595 0.043284632 -0.005373793
-0.051203113 0.022092387 0.12888372 -0.0737958 0.038069688 0.029993381 0.15356745 0.016817253

bias f4 [50]
00000000: 8b07 e5bd 76c2 9bbd 7573 23be 0be5 ffbb
00000010: 54a1 0ebd 0843 61be c0f1 37be 802b fbbd
00000020: 6424 c6bd b378 19be 1e64 22be bdb7 96bd
00000030: 19f2 45be 1519 41be 9c20 cfbd adcf 8abe
00000040: c2d4 15bd 593f d0bd 7e1d ecbd 1bd5 93bd
00000050: ff15 8fbb 04db 96bd 9871 c6bd a29b 32bd
00000060: f9a4 dcbc 74ec eabd 7e66 feb7 ee54 32be
00000070: 5f17 5ebe 1ca4 4dbe c42c 08be fb58 28be
00000080: 6060 23be 0df6 74be 42a3 34be fdfe 93bd
00000090: 65a6 f8bd faa6 2ebe ea16 31be 8768 06be
000000a0: d4fd 16bd ca9e 7fbc 249b 96bd 9567 37be
000000b0: 05df 1bbe c542 1dbe e8a2 21be bba7 46be
000000c0: f82b 8abd 4cf1 1cbe
-0.11183079 -0.0760545 -0.15962012 -0.0078092865 -0.034821823 -0.21998227 -0.17963314 -0.12264156
-0.0967491 -0.1498745 -0.15858504 -0.07359264 -0.19330634 -0.18857224 -0.101136416 -0.2711157
-0.036579855 -0.101683326 -0.11529063 -0.07218381 -0.004366636 -0.07365993 -0.09689635 -0.043605454
-0.026934134 -0.11470881 -3.0326886e-05 -0.1741521 -0.21688603 -0.20082134 -0.13298327 -0.16440193
-0.15954733 -0.23921986 -0.17640403 -0.072263695 -0.12141112 -0.17055884 -0.17293897 -0.13125812
-0.036863163 -0.015601823 -0.073538095 -0.17910607 -0.15221794 -0.15357502 -0.157848 -0.19399922
-0.067466676 -0.15326422

weight f4 [10, 50]
00000000: 8b4a 173e c43f f5be 244c 1d3e 9fc6 adbb
00000010: bb5b ecbe 1b2c 6fbe ab7b f5be 95d3 a4be
00000020: d8df c3be 9da4 e5be b505 a6be 3bf1 c8be
00000030: 05e1 d4be ab03 6b3d 44df c93d 4d97 9a3d
00000040: 5720 d7be c6cf 17be bf62 d73d 7a7a cabe
00000050: 766b e8be ab5b 8cbe dbd6 b3be f6d6 cabe
00000060: 9f7a 023e d737 0cbf a7dd 06bf 09dc 0cbf
00000070: 5872 1d3e d38a e23d 1214 c5be b380 93be
00000080: 3a5c c23d 621e e43d d772 febe 7b66 a43d
00000090: b441 93be 153e a03d 8292 93be 9a35 bcbe
000000a0: 0f96 efbe adf0 febe 9001 81be 78c3 e6be
000000b0: 449f 1ebd fffa 083e 80c2 a3be 97b7 c9be
000000c0: c327 263e 3f9d e03d 8439 d83d 8c3b c63d
000000d0: 5e8e d5be b09c e83d 5e79 ce3d 5604 c33d
000000e0: 00e4 e4be 1630 2bbe 6da5 98be 0409 cbbe
000000f0: 37f0 a3be 96fe 1c3e 6f03 acbe 7fbc cbbe
00000100: 1f2b cabe 8490 c2be 196c 263d c30c 0f3e
00000110: a2d4 04bf 6255 a7be 2fb1 e7be 3a0d a13d
00000120: 1906 0b3e eed2 b63d 9892 a13d d1a4 dbbe
00000130: 3177 10bf 0622 be3d 2903 8dbe 5ee4 243d
00000140: 9e6b e33d 8e73 533d 47a9 d7be d183 10bf
00000150: a5ef 293d 01fc 9f3c a021 b7be e99a bdbe
00000160: 2def e93d d1c0 d73d d66d 9dbe d203 f2bc
00000170: 8e51 bcbe d11b f5be db62 e53c 654c cebe
00000180: b4dc cebe 1bd0 84be d255 fdbe 4b38 a3be
00000190: 3041 c6be ac11 afbe 45e3 85be 1ccb 82bd
000001a0: fbf4 b8be c870 cd3d dd30 303d 1b3e d8be
000001b0: 041f 9a3d 54de 1abd ab6d a3be 4c6a 2b3e
000001c0: 9784 173d 07f2 9f3d a773 9e3c 3701 083d
000001d0: ef55 d5be 4b95 a1be 4302 f9be 6a46 c9be
000001e0: 625c afbe 7bc5 093e 281a b5be 7680 a8be
000001f0: 019a b8be 4a1e dfbe 2416 e3be 2cf6 853d
00000200: 33f2 babe 59b5 a9be 081c dbbe 5871 dabe
00000210: 5d7c 4d3d 813b d1be 86f5 783d 7ac0 543d
00000220: cebf a9be 6e15 adbe d742 f63d 8a6c e23b
00000230: 5a1d 2d3d 7214 253d ce20 d5be f850 a1be
00000240: c794 e8bd 695e c93d 4e81 45bd 1a85 c5be
00000250: a43f e3be 4b8d 8a3d b2cd d7be edad 813d
00000260: 6fe9 4fbe 255d a8bd 02de c2be 22a9 efbe
00000270: c5b8 e73c 8f34 853d e873 00be 7721 aabc
00000280: 5aff bdbe 8655 253e 1292 dfbe fa1a aebe
00000290: 0841 b2bd 4bbc ecbe d482 08bf 7024 84be
000002a0: f18e d6be 1d11 c13d 0d6d ee3d 4009 d13d
000002b0: 54e2 013e 1687 02bf db34 11bf 6e82 eebe
000002c0: 2e06 ab3c 4334 a9be 1ee8 b43d e523 e9be
000002d0: 5437 16bf 9eb1 8dbe df38 bcbe 9aa9 713d
000002e0: 7e91 123d 800c 20be 3afa cd3d 40ca 5dbe
000002f0: 0b04 ffbe 816e f3be 86da e43d 5130 8b3d
00000300: c2bf b1be af45 153e b1cf f73c a4f9 a0be
00000310: 3222 86be 151b d7be f390 d2be 6017 563d
00000320: 2e60 5ebe 325d cfbc 6308 84be 2260 973d
00000330: 6ea6 e23d 327f c53d e4cb 0d3d 6a41 b1be
00000340: b9b5 e1be 4f91 f9be 26f9 173e d3ed b5be
00000350: 5925 8e3d 8850 e4be 9c9b afbe 208f 513d
00000360: 2040 783d dcda 9fbe 48c5 b9be 170b 06bf
00000370: 0068 f7be 3463 ccbe 8b42 383e cf93 e43d
00000380: 9525 f53d a198 e83d c476 43be 2c2b 93be
00000390: 2c8c 77be 5943 b1be a77e 4fbe 97b0 d73d
000003a0: e309 c2be d1ef debe e747 cfbe bcf2 c9be
000003b0: 47f0 72be 6b62 713e ca68 2fbe e3ae 97be
000003c0: 8bb1 d33d 60d4 efbe f2e8 de3d 71a3 94be
000003d0: c672 c3be 4800 d93b 11cf 85be ec3c a2be
000003e0: 17fb 043e e0e2 b6be a45a b9be 66f5 74be
000003f0: 5dad c0be 0d19 e7bd 36bc 87bd b3c9 b9be
0.1477453 -0.47900212 0.15361077 -0.0053032185 -0.46163735 -0.23356669 -0.47945914 -0.32192674
-0.38256717 -0.44852152 -0.3242623 -0.39246544 -0.41577926 0.057376545 0.09857038 0.075483896
-0.4201686 -0.14825353 0.10516881 -0.39546567 -0.45394486 -0.27413687 -0.3512486 -0.39617127
0.12742089 -0.54772705 -0.52681965 -0.55023247 0.1537565 0.11061635 -0.38491875 -0.28809127
0.09490247 0.111386076 -0.4969699 0.08027359 -0.28761065 0.07824341 -0.28822714 -0.36759645
-0.46794173 -0.49792996 -0.25196505 -0.45071006 -0.038726106 0.13376997 -0.3198433 -0.3939788
0.16226105 0.10967492 0.10557845 0.096793264 -0.4171018 0.11358011 0.10081743 0.095223114
-0.447052 -0.16717562 -0.2981371 -0.39655316 -0.32019207 0.15331492 -0.3359637 -0.3979225
-0.39486024 -0.38000882 0.040630434 0.13969712 -0.5188695 -0.3268233 -0.45252368 0.07863851
0.13576545 0.089269504 0.07889289 -0.42899182 -0.5643187 0.09283833 -0.27541474 0.04025685
0.11104511 0.051623873 -0.42121336 -0.56451136 0.04148831 0.019529345 -0.3576784 -0.3703225
0.11422572 0.10534824 -0.3074786 -0.029542837 -0.3678097 -0.47872785 0.02800124 -0.4029266
-0.40402758 -0.25940022 -0.49479538 -0.31878886 -0.3872161 -0.3419317 -0.26149955 -0.06386396
-0.36124405 0.10031277 0.04301535 -0.42234883 0.07525447 -0.037809685 -0.31919608 0.16739768
0.036991682 0.07809835 0.019342257 0.033204284 -0.41667125 -0.31559214 -0.48634538 -0.39311534
-0.3425017 0.13454239 -0.35371518 -0.32910508 -0.36054996 -0.43577796 -0.4435283 0.06541094
-0.36512908 -0.3314617 -0.42794824 -0.426646 0.05016743 -0.4086571 0.060781024 0.051941372
-0.33154148 -0.33805412 0.120244674 0.0069099115 0.04226432 0.0403027 -0.4162659 -0.31507087
-0.11356502 0.098324604 -0.048219018 -0.3857811 -0.4438449 0.06765231 -0.4214912 0.06332002
-0.20303892 -0.08220891 -0.38060004 -0.46808726 0.028286347 0.065041654 -0.12544215 -0.02076791
-0.3710888 0.16145906 -0.4366613 -0.34004956 -0.0870381 -0.46237406 -0.5332463 -0.2580905
-0.4190593 0.09427092 0.116418935 0.102068424 0.12683994 -0.50987375 -0.56721276 -0.46583885
0.02087697 -0.33047685 0.08833335 -0.45535198 -0.58678174 -0.27674574 -0.3676214 0.058999635
0.035783283 -0.15629768 0.100574926 -0.21659184 -0.49807772 -0.47545245 0.111744925 0.06796325
-0.34716612 0.14577363 0.030250402 -0.3144046 -0.26197964 -0.4201285 -0.41126212 0.052268386
-0.21716377 -0.025312994 -0.2578765 0.07391383 0.110669 0.09643401 0.034618273 -0.3462022
-0.44083956 -0.48743674 0.14841136 -0.35533008 0.06940717 -0.4459269 -0.34298408 0.051161885
0.06060803 -0.31221664 -0.36283326 -0.5236067 -0.48321533 -0.39919436 0.17994134 0.11161005
0.11970059 0.11357237 -0.19088274 -0.28743875 -0.24174565 -0.34621695 -0.20263158 0.10531729
-0.37898168 -0.4354234 -0.40484545 -0.39443004 -0.23724471 0.235727 -0.17129818 -0.29625615
0.10336598 -0.46841717 0.108842745 -0.29030946 -0.38173503 0.006622348 -0.26134542 -0.31687105
0.12986408 -0.35719967 -0.36201966 -0.23921737 -0.37632266 -0.11284075 -0.06627695 -0.36286697

bias f4 [10]
00000000: 138e 3c3d c1c6 19bd 31e5 8bbe 9fb7 eabd
00000010: 1bb4 0ebd 9426 a6bd 75e6 afbe c6ac 46be
00000020: e99c 493e bd0c cdbd
0.04603393 -0.037543062 -0.27323297 -0.11460804 -0.03483973 -0.08112827 -0.34355512 -0.19401845
0.19688763 -0.10012195
